models/best_model.onnx (onnx, 766211 bytes, 6 tensors)

features.denseblock1.denselayer1.norm1.weight f4 [64]
000000 01 5d 90 3e bd c8 04 3e e3 7d 6c 3e dd 51 38 3e
       0.28195956 0.129672 0.23094897 0.17999978
000010 2d d6 7f 3e 1a c2 a3 3e a9 fe 2d 36 60 72 4c 3e
       0.24984045 0.31984025 2.592724e-06 0.19965506
000020 2e b5 f1 33 69 36 53 3e c5 71 ab 3e 6a 84 03 3e
       1.12553934e-07 0.20626225 0.33485237 0.1284348
000030 a2 5c e5 3d 48 a6 8c 3d 53 a5 82 3d 72 0f 2e 31
       0.11199309 0.06867653 0.06379189 2.5329112e-09
000040 97 3a 23 3e 2d fe ef 31 02 e9 a4 3d 6d 96 68 3e
       0.15940319 6.984712e-09 0.08052255 0.22713633
000050 1a 6e 47 3e ea 72 32 3e 9b 9f 64 3e 70 4b 0b 31
       0.19475594 0.17426649 0.2232651 2.0270043e-09
000060 09 11 0b b4 4b 03 3f 3e 3b 11 3f 38 0b a0 60 3e
       -1.2951581e-07 0.186536 4.5553996e-05 0.21936052
000070 e2 fc 4d 3e 77 36 1e 3e 97 b3 52 3e 53 2a 7a 31
       0.20115998 0.15450464 0.2057632 3.6403847e-09
000080 68 c0 23 2f a3 5e ea 3d e1 ba 90 3e b6 5e 03 3e
       1.489312e-10 0.11443832 0.28267577 0.12829098
000090 d7 7f 72 3e b9 98 57 3e 21 96 71 3e 55 06 5c 3e
       0.2368158 0.21054353 0.23592426 0.2148679
0000a0 3d 24 3b 3e 7d 14 8b 38 bc c4 e4 3d 3c 96 30 3e
       0.18275543 6.631853e-05 0.111703366 0.1724481
0000b0 ae 1f 15 3e b4 4e 36 3e d1 5d 59 3e 07 4a fa 3d
       0.14562866 0.1780346 0.21227194 0.12221151
0000c0 5d 25 79 3e 82 df 56 3e da e0 30 3e 46 af bb 3d
       0.24330659 0.20983699 0.17273274 0.0916429
0000d0 94 15 5a 3e d2 50 75 3e 2c 8b 50 3e c2 4a b7 3d
       0.21297294 0.23956612 0.2036559 0.08949806
0000e0 ba 90 7d 3e e3 c0 cb 3d f9 64 80 3e bd 52 ca 3d
       0.2476224 0.099488996 0.25077036 0.09879062
0000f0 ab cc 68 3e 26 19 8b 3e ba 63 54 3e fe 84 a6 3d
       0.22734325 0.27167624 0.20741168 0.08130835

features.denseblock1.denselayer1.norm1.bias f4 [64]
000000 67 18 6a 3e 8e 4c 3b 3e 7b ba 69 3e 4e ee 00 3f
       0.22860871 0.18290922 0.22825043 0.50363624
000010 0b 32 4d 3e e8 36 90 3e b4 ec 50 b8 10 fc 80 3e
       0.20038621 0.2816689 -4.981151e-05 0.25192308
000020 25 93 91 b3 81 18 f0 3e 05 f0 8d 3e 11 b5 f9 3d
       -6.778854e-08 0.46893695 0.27722183 0.12192739
000030 e4 0a ad 3d bf 02 9f 3d 13 83 3c 3e 64 b6 85 b2
       0.08449343 0.07764196 0.18409376 -1.556618e-08
000040 79 15 f2 bd bc 9c 1c b4 46 1e c8 bd 1d 6d 89 3e
       -0.11820502 -1.4585652e-07 -0.09771399 0.2684106
000050 bd b3 8b 3e 78 bb 76 3e 78 06 4f 3e 35 29 5e b3
       0.27285567 0.24094951 0.20217311 -5.172588e-08
000060 ca ca ea b4 cc da 87 3e 92 f4 8e ba d0 53 85 3e
       -4.3733445e-07 0.26534116 -0.0010906628 0.26040506
000070 ad 90 93 3e 87 48 95 3d 95 a5 2f be 88 5a 8c b3
       0.28821316 0.07289224 -0.17153008 -6.5357256e-08
000080 7c b2 fb b1 85 62 21 3d 25 36 5d 3e f4 81 ee 3d
       -7.3253528e-09 0.039400596 0.21602686 0.1164588
000090 b0 7a 87 3e 6d 0a 8a 3e df a8 8b 3e 32 da 82 3e
       0.2646079 0.2696108 0.27277276 0.25557095
0000a0 a5 9b 77 3e 27 23 89 ba 9b 99 f5 bd 93 4d 5c 3e
       0.24180467 -0.0010462747 -0.119921885 0.21513967
0000b0 85 48 3b 3e d7 34 bc 3e 8d 55 87 3e 79 ca 08 3e
       0.18289383 0.36759064 0.26432458 0.13358487
0000c0 2e 42 b0 3e f1 de fd 3e b3 25 11 3d d8 96 f7 3c
       0.3442549 0.49584153 0.035436343 0.030223295
0000d0 98 10 58 3e b0 48 8f 3e 40 aa 82 3e f9 81 0e 3e
       0.2110008 0.27985144 0.25520515 0.13916768
0000e0 55 c1 93 3e 76 72 94 3d b1 70 83 3e 6b 72 b6 3d
       0.28858438 0.07248394 0.25671914 0.08908542
0000f0 2b d2 8f 3e bb 32 9a 3e 07 48 95 3e a6 5a 8c bd
       0.28090033 0.3011683 0.29156515 -0.06853227

classifier.1.bias f4 [3]
000000 62 6f 87 3b 38 22 b8 bc ca 7f b3 3c
       0.004133151 -0.022477254 0.02191152

features.denseblock1.denselayer1.norm1.running_mean f4 [64]
000000 c0 08 df 3d 42 bb 72 3d ae 71 4a 3d ff 44 c8 3d
       0.10890341 0.059260614 0.04942482 0.09778785
000010 8e c6 cb 3d 76 5d b4 3d 41 32 10 3e 74 44 58 3d
       0.09949981 0.08806889 0.1408167 0.052799657
000020 04 00 00 00 73 5f 9c 3d db e9 be 3d 8a c5 10 3e
       6e-45 0.07635393 0.09321948 0.14137855
000030 95 5d 61 3d 68 1d 41 3e 83 31 48 3e 04 00 00 00
       0.055020887 0.18858874 0.19550137 6e-45
000040 db 57 55 3d da 8f a2 3e e1 bc 49 3e d7 7e 66 3d
       0.05208574 0.31750375 0.19700958 0.056273308
000050 d4 80 7e 3d 68 b4 50 3d 26 db 34 3d 48 a5 c5 3e
       0.06213458 0.0509533 0.04415431 0.38602662
000060 66 b1 42 3d b7 30 80 3e 89 31 61 3e 3c 8d 53 3d
       0.04753246 0.25037166 0.21991552 0.051648363
000070 d9 bc 8a 3d 68 28 79 3d 58 af ac 3d 96 84 ab 3e
       0.06774301 0.06082955 0.08431882 0.33499593
000080 10 bb 42 3e 47 f2 36 3e de b3 d5 3d b5 ac 4d 3d
       0.19016671 0.17865859 0.104346976 0.050213534
000090 99 f3 2f 3d d7 03 53 3d 0c bc cc 3e d3 e4 37 3d
       0.042956922 0.051517334 0.39987218 0.04489596
0000a0 2c 23 5c 3d 1e 87 a3 3e c9 55 2b 3e 5c f6 70 3d
       0.05374448 0.31939024 0.16731943 0.058828697
0000b0 94 a5 1e 3e 6f d0 8e 3d 2b 77 63 3d 53 80 2d 3e
       0.1549285 0.06973349 0.05553357 0.16943483
0000c0 c9 a8 ab 3d f6 78 91 3d f7 09 a3 3d f6 46 84 3d
       0.083818026 0.071031496 0.07960885 0.06458847
0000d0 73 81 43 3d cd c0 86 3d 80 fd 4c 3d c4 3b 19 3e
       0.047730874 0.065797426 0.050046444 0.14964205
0000e0 47 e7 58 3d 84 87 85 3d ac dc 7e 3d 28 27 71 3e
       0.05295494 0.06519988 0.062222168 0.23550093
0000f0 4a ed 42 3d 29 cd 4b 3d c9 56 63 3d fa a8 5f 3e
       0.047589578 0.049756203 0.055502687 0.21841803

features.denseblock1.denselayer1.norm1.running_var f4 [64]
000000 84 64 0a 3a a8 cd 21 3a 76 c8 25 3a c9 d7 1c 3a
       0.000527926 0.0006172308 0.00063241215 0.0005983082
000010 dd 99 07 3b 29 4e 13 3b 0b 9f 99 3c b4 1c 16 3a
       0.0020691075 0.0022477007 0.018752595 0.0005726323
000020 04 00 00 00 de e4 1c 3a 39 c4 b0 3a 79 c9 91 3c
       6e-45 0.00059850316 0.0013486213 0.017796265
000030 d1 32 d9 39 d4 ab 49 3c 0d bc 40 3b 04 00 00 00
       0.00041427327 0.012309033 0.0029408962 6e-45
000040 7f da a5 39 d0 3d ba 3c 81 49 66 39 43 e5 08 3a
       0.00031634045 0.022734553 0.00021961892 0.0005222151
000050 23 6e e4 39 c8 18 7a 39 dd a7 0f 3a d1 07 b1 3d
       0.00043569607 0.0002385109 0.00054800307 0.08644069
000060 c6 67 1f 3a 58 f6 2a 3c 7e bd b1 3c 76 82 f9 39
       0.0006080832 0.0104347095 0.021696802 0.00047590182
000070 51 74 0c 3a 77 a9 eb 39 34 08 59 3c 13 de 1d 3d
       0.00053579087 0.00044948954 0.013246585 0.038541865
000080 7d 3e 00 3b a4 7c af 3c 1d 1e 31 3a 69 51 3f 3a
       0.0019568496 0.021421738 0.00067565014 0.0007298203
000090 7c 7e d9 39 26 3b d8 39 8a ba ad 3d 9f 88 c3 39
       0.00041483704 0.000412428 0.08482845 0.0003729509
0000a0 5f 46 03 3a 04 e4 85 3d 38 c7 7b 3c 5e 96 15 3a
       0.00050077395 0.06537631 0.015367322 0.00057063054
0000b0 ba de a0 3c db 27 b8 39 8a d5 01 3a 28 8a 74 3b
       0.019637454 0.0003512491 0.0004952779 0.0037313793
0000c0 eb 6e 0e 3a 95 4e da 39 6f 08 24 3b 2a a1 0e 39
       0.0005433398 0.00041638748 0.002502944 0.00013602214
0000d0 c2 f7 0f 3a dd 37 28 3a 76 14 ee 39 6e f3 c8 3a
       0.0005491936 0.00064170157 0.00045410142 0.0015331337
0000e0 72 d0 07 3a f6 3d ec 39 03 88 34 3a c0 04 a2 3c
       0.0005180902 0.00045059592 0.00068867224 0.019777656
0000f0 1b ed d0 39 c0 f1 2d 3a ee 4a 10 3a bd 42 95 3c
       0.0003984951 0.000663545 0.00055043295 0.0182203

image_bias f4 [64]
000000 67 a2 c3 3d c0 7e 27 3d fe 7b 08 3d 18 99 b4 3d
       0.0955246 0.040892363 0.033321373 0.08818263
000010 9f c1 94 3d bd 34 71 3d be 78 0d bf 7c 6c fe 3c
       0.07263493 0.058888186 -0.5526236 0.031057589
000020 07 3e 0d b4 97 1e 81 3d f1 bd 90 3d ae 09 11 3e
       -1.3154214e-07 0.06304663 0.070674784 0.14163849
000030 c5 52 2c 3d 84 22 94 be 58 e9 94 3e c1 01 05 b4
       0.042071123 -0.28932583 0.29084277 -1.2387228e-07
000040 a9 89 1f 3d 63 cc 8c 3f 60 dd 2c 3e 2c aa 18 3d
       0.038949642 1.0999874 0.16881323 0.037271664
000050 9f be 2e 3d 6e 86 13 3d 8a e9 e4 3c 7a 4d 9b 40
       0.04266226 0.036016874 0.027943391 4.8532076
000060 f1 e2 0f 3d 72 5b 14 3e f2 46 e5 3f a1 68 1d 3d
       0.035128538 0.14488009 1.7912276 0.03842986
000070 32 0a 4d 3d b3 e2 4f 3d 8e 54 2d bd fa e0 9b bf
       0.05005855 0.050753307 -0.042316966 -1.2178032
000080 6a 2d 5f 3e b1 40 e7 3d 26 03 b7 3d ee 64 fe 3c
       0.21794668 0.11291636 0.089361474 0.031053986
000090 fa f5 cb 3c 04 83 0c 3d 3c bc 48 3e 0f db dd 3c
       0.024897564 0.034304634 0.19603056 0.027081994
0000a0 59 3a 10 3d 20 a4 c3 3f ee f7 0b 3e 29 a5 1d 3d
       0.035211895 1.5284462 0.13668796 0.038487587
0000b0 c3 e7 c6 3d 43 49 7c 3d 52 c7 18 3d e8 78 05 3e
       0.09712174 0.061593305 0.03729946 0.13034403
0000c0 e5 e5 8b 3d 41 f4 63 3d dc 6c 3c 3d 2b da 6c 3d
       0.06830958 0.05565286 0.046002254 0.05782525
0000d0 b8 4c 03 3d bd 6e 42 3d f6 7a f1 3c 53 ab 08 3e
       0.032055587 0.04746889 0.029477578 0.13346605
0000e0 7a 0f 22 3d 31 4b 74 3d 23 db 2c 3d 4a 41 05 3e
       0.03956554 0.05964202 0.042201173 0.13013187
0000f0 48 39 fe 3c a1 75 03 3d 15 8e 1e 3d 9e 35 c6 bd
       0.031033173 0.0320946 0.03870972 -0.096781954
